…
onInfo":{"status":"ok","timestamp":1643105031221,"user_tz":-540,"elapsed":6,"user":{"displayName":"박준석","photoUrl":"https://lh3.googleusercontent.com/a/default-user=s64","userId":"08939147101008346804"}},"outputId":"9932fca6-a88f-4bc6-9bd8-607765a6c2a4"},"execution_count":6,"outputs":[{"output_type":"stream","name":"stdout","text":["Model: \"sequential\"\n","_________________________________________________________________\n"," Layer (type)                Output Shape              Param #   \n","=================================================================\n"," conv2d (Conv2D)             (None, 28, 28, 32)        320       \n","                                                                 \n"," max_pooling2d (MaxPooling2D  (None, 14, 14, 32)       0         \n"," )                                                               \n","                                                                 \n"," conv2d_1 (Conv2D)           (None, 14, 14, 64)        18496     \n","                                                                 \n"," max_pooling2d_1 (MaxPooling  (None, 7, 7, 64)         0         \n"," 2D)                                                             \n","                                                                 \n"," flatten (Flatten)           (None, 3136)              0         \n","                                                                 \n"," dense (Dense)               (None, 100)               313700    \n","                                                                 \n"," dropout (Dropout)           (None, 100)               0         \n","                                                                 \n"," dense_1 (Dense)             (None, 10)                1010      \n","                                                                 \n","=================================================================\n","Total params: 333,526\n","Trainable params: 333,526\n","Non-trainable params: 0\n","_________________________________________________________________\n"]}]},{"cell_type":"code","source":["keras.utils.plot_model(model)"],"metadata":{"colab":{"base_ur
…
